…
2021-04-09 16:01:07.825435: W tensorflow/core/common_runtime/gpu/gpu_bfc_allocator.cc:39] Overriding allow_growth setting because the TF_FORCE_GPU_ALLOW_GROWTH environment variable is set. Original config value was 0.
2021-04-09 16:01:07.825503: I tensorflow/core/common_runtime/gpu/gpu_device.cc:1406] Created TensorFlow device (/job:localhost/replica:0/task:0/device:GPU:0 with 13994 MB memory) -> physical GPU (device: 0, name: Tesla T4, pci bus id: 0000:00:04.0, compute capability: 7.5)
Model: "sequential"
_________________________________________________________________
Layer (type)                 Output Shape              Param #   
=================================================================
conv2d (Conv2D)              (None, 98, 98, 32)        320       
_________________________________________________________________
batch_normalization (BatchNo (None, 98, 98, 32)        128       
_________________________________________________________________
max_pooling2d (MaxPooling2D) (None, 49, 49, 32)        0         
_________________________________________________________________
dropout (Dropout)            (None, 49, 49, 32)        0         
_________________________________________________________________
conv2d_1 (Conv2D)            (None, 47, 47, 64)        18496     
_________________________________________________________________
batch_normalization_1 (Batch (None, 47, 47, 64)        256       
_________________________________________________________________
max_pooling2d_1 (MaxPooling2 (None, 23, 23, 64)        0         
_________________________________________________________________
dropout_1 (Dropout)          (None, 23, 23, 64)        0         
_________________________________________________________________
flatten (Flatten)            (None, 33856)             0         
_________________________________________________________________
dense (Dense)                (None, 128)               4333696   
_________________________________________________________________
dropout_2 (Dropout)          (None, 128)               0         
_________________________________________________________________
dense_1 (Dense)              (None, 18)                2322      
=================================================================
Total params: 4,355,218
Trainable params: 4,355,026
Non-trainable params: 192
_________________________________________________________________
2021-04-09 16:01:08.072881: I tensorflow/compiler/mlir/mlir_graph_optimization_pass.cc:116] None of the MLIR optimization passes are enabled (registered 2)
2021-04-09 16:01:08.079650: I tensorflow/core/platform/profile_utils/cpu_utils.cc:112] CPU Frequency: 2199995000 Hz
…
