Total images in dataset: 22500
Output vector length: 22500
X shape: (22500, 100, 100)
y shape: (22500, 18)
Number of training images: (18000, 100, 100, 1)
Number of test images: (4500, 100, 100, 1)
--------------------------------------------------------------------------- 



Model: "sequential"
_________________________________________________________________
Layer (type)                 Output Shape              Param #   
=================================================================
conv2d (Conv2D)              (None, 98, 98, 32)        320       
_________________________________________________________________
batch_normalization (BatchNo (None, 98, 98, 32)        128       
_________________________________________________________________
max_pooling2d (MaxPooling2D) (None, 49, 49, 32)        0         
_________________________________________________________________
dropout (Dropout)            (None, 49, 49, 32)        0         
_________________________________________________________________
conv2d_1 (Conv2D)            (None, 47, 47, 64)        18496     
_________________________________________________________________
batch_normalization_1 (Batch (None, 47, 47, 64)        256       
_________________________________________________________________
max_pooling2d_1 (MaxPooling2 (None, 23, 23, 64)        0         
_________________________________________________________________
dropout_1 (Dropout)          (None, 23, 23, 64)        0         
_________________________________________________________________
flatten (Flatten)            (None, 33856)             0         
_________________________________________________________________
dense (Dense)                (None, 128)               4333696   
_________________________________________________________________
dropout_2 (Dropout)          (None, 128)               0         
_________________________________________________________________
dense_1 (Dense)              (None, 18)                2322      
=================================================================
Total params: 4,355,218
Trainable params: 4,355,026
Non-trainable params: 192
_________________________________________________________________

STARTING TRAINING!


Epoch 1/35
60/60 [==============================] - 41s 163ms/step - loss: 3.8272 - categorical_accuracy: 0.2025 - val_loss: 1.7025 - val_categorical_accuracy: 0.4944
…
